…
2024-03-22 21:37:05: Experiment configs are: Namespace(seed=31, device='cuda', debug=False, running_mode='train', epochs=100, lr_init=0.001, batch_size=64, load_train_model=False, train_best_path='None', load_model=False, best_path='None', early_stop_patience=5, num_hist=12, num_pred=1, d_model=32, d_output=2, dropout=0.1, shm_temp=0.6, nmb_prototype=6, aug_drop_percent=0.1, yita=0.5, grad_norm=True, max_grad_norm=7, dataset='cdata', datapath='cdata.npy', num_nodes=50, scalar_type='Standard', train_ratio=0.7, valid_ratio=0.2, test_ratio=0.1, adj_mx='dist_mx.npy', od_mx='od_mx.npy', log_dir='C:\\Users\\17301\\Desktop\\∫Ω∞‡—”ŒÛ‘§≤‚ µ—È\\logs\\cdata\\20240322-213705')
2024-03-22 21:37:06: cdata Dataset Load Finished.
2024-03-22 21:37:07: Model_Aug(
  (encoder): STEncoder(
    (tconv11): TemporalConvLayer(
      (align): Align()
      (conv): Conv2d(3, 32, kernel_size=(3, 1), stride=(1, 1))
    )
    (pooler): Pooler(
      (att): FCLayer(
        (linear): Conv2d(16, 10, kernel_size=(1, 1), stride=(1, 1))
      )
      (align): Align()
      (softmax): Softmax(dim=2)
      (agg): AvgPool2d(kernel_size=(10, 1), stride=1, padding=0)
    )
    (sconv12): SpatioConvLayer(
      (align): Align()
    )
    (tconv13): TemporalConvLayer(
      (align): Align()
      (conv): Conv2d(16, 32, kernel_size=(3, 1), stride=(1, 1))
    )
    (ln1): LayerNorm((50, 32), eps=1e-05, elementwise_affine=True)
    (dropout1): Dropout(p=0.1, inplace=False)
    (tconv21): TemporalConvLayer(
      (align): Align(
        (conv1x1): Conv2d(32, 16, kernel_size=(1, 1), stride=(1, 1))
      )
      (conv): Conv2d(32, 32, kernel_size=(3, 1), stride=(1, 1))
    )
    (sconv22): SpatioConvLayer(
      (align): Align()
    )
    (tconv23): TemporalConvLayer(
      (align): Align()
      (conv): Conv2d(16, 32, kernel_size=(3, 1), stride=(1, 1))
    )
    (ln2): LayerNorm((50, 32), eps=1e-05, elementwise_affine=True)
    (dropout2): Dropout(p=0.1, inplace=False)
    (out_conv): TemporalConvLayer(
      (align): Align()
      (conv): Conv2d(32, 64, kernel_size=(4, 1), stride=(1, 1))
    )
    (ln3): LayerNorm((50, 32), eps=1e-05, elementwise_affine=True)
    (dropout3): Dropout(p=0.1, inplace=False)
  )
  (mlp): MLP(
    (fc1): FCLayer(
      (linear): Conv2d(32, 16, kernel_size=(1, 1), stride=(1, 1))
    )
    (fc2): FCLayer(
      (linear): Conv2d(16, 2, kernel_size=(1, 1), stride=(1, 1))
    )
  )
  (thm): TemporalHeteroModel(
    (read): AvgReadout(
      (sigm): Sigmoid()
    )
    (disc): Discriminator(
      (net): Bilinear(in1_features=32, in2_features=32, out_features=1, bias=True)
    )
    (b_xent): BCEWithLogitsLoss()
  )
  (shm): SpatialHeteroModel(
    (prototypes): Linear(in_features=32, out_features=6, bias=False)
  )
)
2024-03-22 21:38:57: ****Epoch: 0, Train Loss: 204.76906010945638, MAE: 70.73157801310221, RMSE: 130.81090166727702, STH: 3.226580304702123
2024-03-22 21:38:58: ****Epoch: 0, Valid Loss: 156.78772044462318, MAE: 52.34426498413086, RMSE: 101.79998083675609, STH: 2.6434751608792473
2024-03-22 21:39:05: ****Epoch: 1, Train Loss: 175.2184294128418, MAE: 61.25394925435384, RMSE: 111.33583048502604, STH: 2.6286496308445932
…
